Dataloading is over.
Namespace(lr=0.001, epochs=300, weight_decay=1e-05, model='Transolver_Structured_Mesh_2D', n_hidden=128, n_layers=8, n_heads=8, batch_size=4, gpu='0', max_grad_norm=0.1, downsample=5, mlp_ratio=1, dropout=0.0, ntrain=1000, unified_pos=1, ref=8, slice_num=1, eval=0, save_name='darcy_M1', data_path='/kaggle/input/datasets/thegreenier/transolver-data-group9/Darcy_421')
Model(
  (preprocess): MLP(
    (linear_pre): Sequential(
      (0): Linear(in_features=65, out_features=256, bias=True)
      (1): GELU(approximate='none')
    )
    (linear_post): Linear(in_features=256, out_features=128, bias=True)
    (linears): ModuleList()
  )
  (blocks): ModuleList(
    (0-6): 7 x Transolver_block(
      (ln_1): LayerNorm((128,), eps=1e-05, elementwise_affine=True)
      (Attn): Physics_Attention_Structured_Mesh_2D(
        (softmax): Softmax(dim=-1)
        (dropout): Dropout(p=0.0, inplace=False)
        (in_project_x): Conv2d(128, 128, kernel_size=(3, 3), stride=(1, 1), padding=(1, 1))
        (in_project_fx): Conv2d(128, 128, kernel_size=(3, 3), stride=(1, 1), padding=(1, 1))
        (in_project_slice): Linear(in_features=16, out_features=1, bias=True)
        (to_q): Linear(in_features=16, out_features=16, bias=False)
        (to_k): Linear(in_features=16, out_features=16, bias=False)
        (to_v): Linear(in_features=16, out_features=16, bias=False)
        (to_out): Sequential(
          (0): Linear(in_features=128, out_features=128, bias=True)
          (1): Dropout(p=0.0, inplace=False)
        )
      )
      (ln_2): LayerNorm((128,), eps=1e-05, elementwise_affine=True)
      (mlp): MLP(
        (linear_pre): Sequential(
          (0): Linear(in_features=128, out_features=128, bias=True)
          (1): GELU(approximate='none')
        )
        (linear_post): Linear(in_features=128, out_features=128, bias=True)
        (linears): ModuleList()
      )
    )
    (7): Transolver_block(
      (ln_1): LayerNorm((128,), eps=1e-05, elementwise_affine=True)
      (Attn): Physics_Attention_Structured_Mesh_2D(
        (softmax): Softmax(dim=-1)
        (dropout): Dropout(p=0.0, inplace=False)
        (in_project_x): Conv2d(128, 128, kernel_size=(3, 3), stride=(1, 1), padding=(1, 1))
        (in_project_fx): Conv2d(128, 128, kernel_size=(3, 3), stride=(1, 1), padding=(1, 1))
        (in_project_slice): Linear(in_features=16, out_features=1, bias=True)
        (to_q): Linear(in_features=16, out_features=16, bias=False)
        (to_k): Linear(in_features=16, out_features=16, bias=False)
        (to_v): Linear(in_features=16, out_features=16, bias=False)
        (to_out): Sequential(
          (0): Linear(in_features=128, out_features=128, bias=True)
          (1): Dropout(p=0.0, inplace=False)
        )
      )
      (ln_2): LayerNorm((128,), eps=1e-05, elementwise_affine=True)
      (mlp): MLP(
        (linear_pre): Sequential(
          (0): Linear(in_features=128, out_features=128, bias=True)
          (1): GELU(approximate='none')
        )
        (linear_post): Linear(in_features=128, out_features=128, bias=True)
        (linears): ModuleList()
      )
      (ln_3): LayerNorm((128,), eps=1e-05, elementwise_affine=True)
      (mlp2): Linear(in_features=128, out_features=1, bias=True)
    )
  )
)
Total Trainable Params: 2818377
Epoch 0 Reg : 1.45889 Train loss : 0.25741
rel_err:0.23948289323678654
save model
Epoch 1 Reg : 1.13471 Train loss : 0.21602
rel_err:0.22736050859996618
Epoch 2 Reg : 1.08643 Train loss : 0.21045
rel_err:0.20174413663521468
Epoch 3 Reg : 1.07700 Train loss : 0.20793
rel_err:0.20562560102916794
Epoch 4 Reg : 1.05041 Train loss : 0.20506
…
