Dataloading is over.
Namespace(lr=0.001, epochs=300, weight_decay=1e-05, model='Transolver_Structured_Mesh_2D', n_hidden=128, n_layers=8, n_heads=8, batch_size=4, gpu='0', max_grad_norm=0.1, downsample=5, mlp_ratio=1, dropout=0.0, ntrain=1000, unified_pos=1, ref=8, slice_num=1024, eval=0, save_name='darcy_M1024', data_path='/scratch/plens/FRML/data/darcy')
Model(
  (preprocess): MLP(
    (linear_pre): Sequential(
      (0): Linear(in_features=65, out_features=256, bias=True)
      (1): GELU(approximate='none')
    )
    (linear_post): Linear(in_features=256, out_features=128, bias=True)
    (linears): ModuleList()
  )
  (blocks): ModuleList(
    (0-6): 7 x Transolver_block(
      (ln_1): LayerNorm((128,), eps=1e-05, elementwise_affine=True, bias=True)
      (Attn): Physics_Attention_Structured_Mesh_2D(
        (softmax): Softmax(dim=-1)
        (dropout): Dropout(p=0.0, inplace=False)
        (in_project_x): Conv2d(128, 128, kernel_size=(3, 3), stride=(1, 1), padding=(1, 1))
        (in_project_fx): Conv2d(128, 128, kernel_size=(3, 3), stride=(1, 1), padding=(1, 1))
        (in_project_slice): Linear(in_features=16, out_features=1024, bias=True)
        (to_q): Linear(in_features=16, out_features=16, bias=False)
        (to_k): Linear(in_features=16, out_features=16, bias=False)
        (to_v): Linear(in_features=16, out_features=16, bias=False)
        (to_out): Sequential(
          (0): Linear(in_features=128, out_features=128, bias=True)
          (1): Dropout(p=0.0, inplace=False)
        )
      )
      (ln_2): LayerNorm((128,), eps=1e-05, elementwise_affine=True, bias=True)
      (mlp): MLP(
        (linear_pre): Sequential(
          (0): Linear(in_features=128, out_features=128, bias=True)
          (1): GELU(approximate='none')
        )
        (linear_post): Linear(in_features=128, out_features=128, bias=True)
        (linears): ModuleList()
      )
    )
    (7): Transolver_block(
      (ln_1): LayerNorm((128,), eps=1e-05, elementwise_affine=True, bias=True)
      (Attn): Physics_Attention_Structured_Mesh_2D(
        (softmax): Softmax(dim=-1)
        (dropout): Dropout(p=0.0, inplace=False)
        (in_project_x): Conv2d(128, 128, kernel_size=(3, 3), stride=(1, 1), padding=(1, 1))
        (in_project_fx): Conv2d(128, 128, kernel_size=(3, 3), stride=(1, 1), padding=(1, 1))
        (in_project_slice): Linear(in_features=16, out_features=1024, bias=True)
        (to_q): Linear(in_features=16, out_features=16, bias=False)
        (to_k): Linear(in_features=16, out_features=16, bias=False)
        (to_v): Linear(in_features=16, out_features=16, bias=False)
        (to_out): Sequential(
          (0): Linear(in_features=128, out_features=128, bias=True)
          (1): Dropout(p=0.0, inplace=False)
        )
      )
      (ln_2): LayerNorm((128,), eps=1e-05, elementwise_affine=True, bias=True)
      (mlp): MLP(
        (linear_pre): Sequential(
          (0): Linear(in_features=128, out_features=128, bias=True)
          (1): GELU(approximate='none')
        )
        (linear_post): Linear(in_features=128, out_features=128, bias=True)
        (linears): ModuleList()
      )
      (ln_3): LayerNorm((128,), eps=1e-05, elementwise_affine=True, bias=True)
      (mlp2): Linear(in_features=128, out_features=1, bias=True)
    )
  )
)
Total Trainable Params: 2957505
Epoch 0 Reg : 1.40846 Train loss : 0.25240
rel_err:0.229594742724258
save model
Epoch 1 Reg : 1.12389 Train loss : 0.21196
rel_err:0.2185505934880444
Epoch 2 Reg : 1.03870 Train loss : 0.19663
rel_err:0.19288758794749775
Epoch 3 Reg : 0.90342 Train loss : 0.16104
rel_err:0.14722799322663274
Epoch 4 Reg : 0.77896 Train loss : 0.13327
…
