torch.Size([2000, 972]) torch.Size([2000, 972, 2])
Dataloading is over.
Namespace(lr=0.001, epochs=300, weight_decay=1e-05, model='Transolver_Irregular_Mesh', n_hidden=128, n_layers=8, n_heads=8, batch_size=1, gpu='1', max_grad_norm=0.1, downsample=5, mlp_ratio=1, dropout=0.0, ntrain=1000, unified_pos=0, ref=8, slice_num=256, eval=0, save_name='elas_M256', data_path='/kaggle/input/datasets/thegreenier/transolver-data-group9/elasticity-20260508T172658Z-3-001')
Model(
  (preprocess): MLP(
    (linear_pre): Sequential(
      (0): Linear(in_features=2, out_features=256, bias=True)
      (1): GELU(approximate='none')
    )
    (linear_post): Linear(in_features=256, out_features=128, bias=True)
    (linears): ModuleList()
  )
  (blocks): ModuleList(
    (0-6): 7 x Transolver_block(
      (ln_1): LayerNorm((128,), eps=1e-05, elementwise_affine=True)
      (Attn): Physics_Attention_Irregular_Mesh(
        (softmax): Softmax(dim=-1)
        (dropout): Dropout(p=0.0, inplace=False)
        (in_project_x): Linear(in_features=128, out_features=128, bias=True)
        (in_project_fx): Linear(in_features=128, out_features=128, bias=True)
        (in_project_slice): Linear(in_features=16, out_features=256, bias=True)
        (to_q): Linear(in_features=16, out_features=16, bias=False)
        (to_k): Linear(in_features=16, out_features=16, bias=False)
        (to_v): Linear(in_features=16, out_features=16, bias=False)
        (to_out): Sequential(
          (0): Linear(in_features=128, out_features=128, bias=True)
          (1): Dropout(p=0.0, inplace=False)
        )
      )
      (ln_2): LayerNorm((128,), eps=1e-05, elementwise_affine=True)
      (mlp): MLP(
        (linear_pre): Sequential(
          (0): Linear(in_features=128, out_features=128, bias=True)
          (1): GELU(approximate='none')
        )
        (linear_post): Linear(in_features=128, out_features=128, bias=True)
        (linears): ModuleList()
      )
    )
    (7): Transolver_block(
      (ln_1): LayerNorm((128,), eps=1e-05, elementwise_affine=True)
      (Attn): Physics_Attention_Irregular_Mesh(
        (softmax): Softmax(dim=-1)
        (dropout): Dropout(p=0.0, inplace=False)
        (in_project_x): Linear(in_features=128, out_features=128, bias=True)
        (in_project_fx): Linear(in_features=128, out_features=128, bias=True)
        (in_project_slice): Linear(in_features=16, out_features=256, bias=True)
        (to_q): Linear(in_features=16, out_features=16, bias=False)
        (to_k): Linear(in_features=16, out_features=16, bias=False)
        (to_v): Linear(in_features=16, out_features=16, bias=False)
        (to_out): Sequential(
          (0): Linear(in_features=128, out_features=128, bias=True)
          (1): Dropout(p=0.0, inplace=False)
        )
      )
      (ln_2): LayerNorm((128,), eps=1e-05, elementwise_affine=True)
      (mlp): MLP(
        (linear_pre): Sequential(
          (0): Linear(in_features=128, out_features=128, bias=True)
          (1): GELU(approximate='none')
        )
        (linear_post): Linear(in_features=128, out_features=128, bias=True)
        (linears): ModuleList()
      )
      (ln_3): LayerNorm((128,), eps=1e-05, elementwise_affine=True)
      (mlp2): Linear(in_features=128, out_features=1, bias=True)
    )
  )
)
Total Trainable Params: 739777
Epoch 0 Train loss : 0.50767
rel_err : 0.49652745828032496
save model
Epoch 1 Train loss : 0.48917
rel_err : 0.4202454209327698
Epoch 2 Train loss : 0.37185
rel_err : 0.35164021246135235
Epoch 3 Train loss : 0.33214
rel_err : 0.31292498148977754
Epoch 4 Train loss : 0.31272
rel_err : 0.33068312376737596
Epoch 5 Train loss : 0.29893
…
